ml-engine/siamese_lstm_pytorch.pt (torch, 98250 bytes, 6 tensors)

lstm.weight_ih_l0 f4 [256, 11]
00000000: 3a13 173d e6ef de3d d2fa 6c3d 35cb 013e
00000010: 8b1e c5bd 6c7e bf3c 3ecb 933d 2ba2 7d3d
00000020: 9bf8 babc 7ac0 55bd fa44 a7bc 18c3 fa3d
00000030: 7bfb 243e 0a3d 943d 22de 8fbc d192 a83d
00000040: c440 49bd ee43 ddbb a415 8c3c 0747 993a
00000050: 1141 2b3e 50ff 843d 4dac 6c3d ed53 05be
00000060: 80b4 663d 86a1 79bd a9e7 763e 8c3a d53d
00000070: 8d66 af3c 6b90 b8bd f5a7 27bd 7de3 3e3d
00000080: bd78 f7bc a9c9 6e3c a62a c3bd 6c32 afbd
00000090: 0382 063e f94f d83d 5962 ce3d 3bdc 67bb
000000a0: cc91 5dbd 410f 8a3d 945a 94bd bf2e f13d
000000b0: e4a0 6fbd af4c 1c3b f73c 4fbd 88f3 543c
000000c0: bc40 d7bc 7140 b1bc c182 b7bd bd55 0bbe
000000d0: 53b8 12bd 16ec fa3d 7664 913c 046a 34bd
000000e0: ebbc 213d b86a 8abd 3ee8 f93d 6ef5 38bd
000000f0: d392 1c3d 1e23 2c3c 1772 2f3d 75da 96bd
00000100: 98bc 293c 8c34 50bd d192 e13d 0074 98bc
00000110: 47b2 8bbd 1528 bb3d 0000 c63d 826e 7c3c
00000120: 7ccb dabd 7ff4 a5bd d48c b03d dbe0 5f3d
00000130: 54da 8ebc 4d00 58bd f4d5 9b3d 5c56 ef3c
00000140: bcde d2bc 600e 2cbc 2dc3 1d3e 0e3b 033e
00000150: d75b 0bbe c89d 773d f27c 8e3c d1f8 f63d
00000160: 7c21 7dbd ec74 43bd 6266 103e e167 ac3d
00000170: 69f3 43bd 0c33 4c3d 27ab 183e 10f3 f3bd
00000180: 476f aa3d 2a14 683e 4c8b a53d 1959 a33a
00000190: fb85 5ebd ae92 ef3d cd0c 033e b40d 883d
000001a0: 1b3b 073e ff97 3abc fa57 d83c 2613 21bd
000001b0: da73 423e 8984 033d 836b dd3c 9dd7 a53d
000001c0: 366e d7bc 8343 d43d d17b ef3d 6918 b13c
000001d0: 7ea1 a9bd 277a 7d3d 49b0 743d bcf7 cfbc
000001e0: 8289 98bc abb8 3b3a f90b 823c 0471 943c
000001f0: 9f0a 58bc bec3 64bc ccb3 083e 2516 813d
00000200: 833a 733d 9630 7bbd a484 f03d ee51 123b
00000210: 2c83 d13d 4c01 123d 49aa eabc 5117 8e3d
00000220: eaf9 16bd a3ba 453d ef4e b1bd fb8c a8bd
00000230: 0552 92bd 456b df3d 0436 b8bd e50b db3c
00000240: 1df8 c13d 5810 243d 7986 1b3c 4f61 0cbd
00000250: e4f0 1e3e e9a3 8ebd 9f2a fbbc caf1 ebbc
00000260: a53f ff3d 8cf7 1a3d af95 e13d df08 db3c
00000270: 3fc8 7a3d f989 d33d 8ced d3bc 6cf5 753d
00000280: aa8a 943c acf6 9ebc 7ed0 aebc 3591 253e
00000290: 38f3 aabc 4c0e b9bd 2cd0 c7bd 2060 cf3d
000002a0: 7112 4a3d b448 b9bd 38d7 853d 23f0 c33d
000002b0: 70ae 1039 f2a1 a73c 9846 d03b 2383 c33d
000002c0: 99f4 623b 2c8d b73d aca1 7cbd 84bc 2d3d
000002d0: 8a68 66bd 31d4 98bd a501 15bc ac6e 8d3d
000002e0: 300e c23d e3b1 923d 3644 65bd 6460 c2bb
000002f0: 9792 04be 9217 c23d 8004 453d 4b7e cdbd
00000300: 1360 babc 6715 003e 16ef 56bd eaa7 c53d
00000310: 2c03 f33d 01c3 1e3d 2692 163e 05fe d0bc
00000320: 5b1b 4c3e fd25 203d 933d d23d 9afa 4a3d
00000330: cb06 1f3e 2619 41bd b383 a9bb 6b74 073d
00000340: 2bed 8d3d cfcb d33d 3370 6f3d 0339 933d
00000350: 3f7a fa3d c7bf dbbb a988 453d bbaf 88bd
00000360: 7208 623c aee4 343d ad48 11bd 617a abbc
00000370: 7e09 0f3e 2e1e c6bd 72fd 01bd f29f a13d
00000380: b363 253e 855d dd3d b43f 2b3c 5694 0cbe
00000390: 0d2e 74bc 1a3e ef3d b9c3 0dbd 4be2 96bd
000003a0: 4e72 023e 1c76 013b fb9c ca3d bd4c 9e3d
000003b0: eabd e8bb 2138 0c3e 2bc6 883d 0d47 063e
000003c0: b232 1b3e 92de 423d a552 e83d dbbd 453c
000003d0: 0bad c73d 73a3 003e 096d 28bd 4d3e 64bd
000003e0: 399d f33d d8a0 923c 1bfd 9fbd 7c54 b33d
000003f0: ff22 b03d 9837 01bc e5f3 19bd 329f 9fbd
0.03688357 0.10885601 0.05785639 0.12675174 -0.09624966 0.023375712 0.072165 0.061922234
-0.022823622 -0.052185513 -0.020418633 0.122442424 0.16111557 0.07238205 -0.017561976 0.08231128
-0.04913403 -0.0067524826 0.017100163 0.0011694141 0.1672404 0.064940095 0.057781506 -0.13020296
0.056324482 -0.060945056 0.24111809 0.104115576 0.021411205 -0.090119205 -0.04093166 0.04660367
-0.03020894 0.014574447 -0.09529619 -0.08554539 0.13135533 0.105621286 0.10077352 -0.003537907
-0.05409412 0.06741191 -0.07243839 0.11776494 -0.058503047 0.0023849418 -0.05059525 0.0129975155
-0.026275985 -0.021637173 -0.08960486 -0.13606925 -0.035820317 0.12252061 0.017748099 -0.044046417
0.039486807 -0.06758636 0.122025 -0.045155935 0.03822596 0.010506419 0.042833414 -0.07365886
0.010359906 -0.050831363 0.11014331 -0.01861 -0.06821113 0.091385044 0.09667969 0.0154072065
-0.10683343 -0.081032746 0.08620611 0.0546578 -0.017438091 -0.05273466 0.07609168 0.029215984
-0.025740974 -0.010501474 0.15406485 0.12815496 -0.13609253 0.060453206 0.017393563 0.12059177
-0.06179951 -0.047718927 0.14101556 0.08418251 -0.047839556 0.04985337 0.1490904 -0.11911595
0.08322006 0.22663942 0.080832094 0.0012462466 -0.054326992 0.11697899 0.12797852 0.06643239
0.1320614 -0.011388778 0.026409138 -0.039324902 0.18989506 0.032108817 0.027028805 0.080977656
-0.02629767 0.10364439 0.11693538 0.021618085 -0.08282755 0.06188407 0.05973843 -0.025386684
-0.018620256 0.00071610016 0.01587485 0.018120296 -0.013186126 -0.013962684 0.13349837 0.06303052
0.059381973 -0.061325632 0.11744049 0.0022326666 0.10230097 0.035645768 -0.028645651 0.06938041
-0.03685943 0.048273694 -0.086576335 -0.08230015 -0.0714455 0.10909132 -0.08994678 0.02673907
0.09471152 0.04005465 0.00949251 -0.03427249 0.1552158 -0.06964857 -0.030659972 -0.028801817
0.12463311 0.037833735 0.11014878 0.026737629 0.061226126 0.103290506 -0.025870107 0.060048506
0.018132526 -0.019404732 -0.021339651 0.16168673 -0.020867929 -0.0903593 -0.097565025 0.10125756
0.049333993 -0.0904707 0.0653519 0.09567287 0.00013797893 0.020462964 0.0063560717 0.09546497
0.0034630655 0.08962473 -0.06167762 0.04241611 -0.05625204 -0.07462347 -0.00909463 0.069058746
0.09475362 0.071628354 -0.055973254 -0.005931901 -0.12946545 0.09477152 0.048099995 -0.10033854
-0.02275089 0.12508164 -0.052474104 0.09651168 0.11865839 0.03876019 0.14704189 -0.025511751
0.1993231 0.03909873 0.102656506 0.0495554 0.15529935 -0.047143124 -0.0051731705 0.03307001
0.06930002 0.10341608 0.05845661 0.071886085 0.12230348 -0.0067062113 0.048226032 -0.06674143
0.013795959 0.0441634 -0.0354697 -0.020932378 0.13968465 -0.09673725 -0.031735845 0.07891835
0.16151313 0.10808853 0.0104522 -0.1372846 -0.0149035575 0.11681767 -0.034610484 -0.07367381
0.12738916 0.0019754237 0.09893223 0.077294804 -0.0071027176 0.13693286 0.066784225 0.13113041
0.15156057 0.04757554 0.11343888 0.012069191 0.09749802 0.12562351 -0.04111961 -0.055723477
0.11895222 0.017898962 -0.07811948 0.087563485 0.08600425 -0.00788679 -0.03758611 -0.07794036

lstm.weight_hh_l0 f4 [256, 64]
00000000: c1d7 10be 13dd f33d 2e9f a33d 64f3 a0bc
00000010: 66b4 32bd 8eb8 e6bc f6f6 9a3c 009c 023d
00000020: 186a e03d a3bc 1d3d b26c 0f3c a211 c5bd
00000030: 060f ff3c da04 1e3d 3176 c2bc a595 8e3d
00000040: 65ae 7e3a d2e6 463c 363f e73b 8fc2 05be
00000050: d89b d53d ed44 a53d 77de bcbc 9bc2 633d
00000060: 4222 093e 4735 0a3d 4b6e 81bd 2add 94bd
00000070: 36cb ab3c 1af3 693c aff6 19bd dc0a 0abd
00000080: af68 ce3d 7074 4fbd 3906 c33c af4f 70ba
00000090: 9f6b 913d 1cc3 20bc 543a 063e 2231 703c
000000a0: 99a8 15bd 21c5 16be d276 afbd ed5f 62bc
000000b0: c76c ee3d 045e eb3d f4cf acbd 1e9b acbd
000000c0: 3b96 c5bd dfad 103d f4a1 14bd 8343 bf3d
000000d0: b679 d3bd ff84 a3bd 6d53 d5bd 48b6 81bd
000000e0: 965d 33bd c530 0bbd e380 d6bd b224 c6bb
000000f0: 2d7a 603d fe83 063d 4fbb 15bd 4939 15be
00000100: b31d d33c ec1b 2dbd b210 a23d 793f aabd
00000110: fab7 893c 241f 8f3d 2352 79bd 3e59 0b3d
00000120: 2f22 493d 9fe6 cebd a2b3 98bd 5972 cc3c
00000130: 7ea4 80bd 9a24 e13d 7824 e2bd 3867 523d
00000140: 9148 30bb 47b3 ab3c 399e 493d c7aa 08bc
00000150: 6cfc 073e 8be7 ba3d 4eb4 d9bd b5a0 3c3c
00000160: 5b58 323d ce73 ec3d 9992 1fbd 1ad8 26bb
00000170: e044 093e 225c a43d 00f8 07bc 96d9 43bc
00000180: 1dd3 933d 7b1c d43d a008 c93c ece2 debd
00000190: fd0d e93c 8a91 54bc f80d 8abd 14fe a33d
000001a0: a89a fd3d 53fd 653d 2c2b 513d b647 18bd
000001b0: ec27 07bd 7211 cd3b 99df f03c 18ae a0bc
000001c0: dc67 3f3d 35b8 92bd 20e9 293e 6bdb 3fbd
000001d0: e64c 92bd 84c2 08bd 910d 92bd 7ab1 aebc
000001e0: adaa 9a3d f440 663d f0da 63bd cdef 83bd
000001f0: b6fe ffbd 00a3 dcbc 58e9 fb3c f9d1 02be
00000200: ae2d 0dbb 90cb f6bd 31a6 083d 0be0 12bd
00000210: 938e a63d a1a4 c93d 5344 b7bb a4c7 2c3e
00000220: 512e b0bd b0f7 b4bd 2450 5dbd 4418 9d3d
00000230: c94f f9bc 9882 93bd e78b 3ebd 8c0f 0a3d
00000240: c5b0 11be 769c 153e 54a2 413d 3f5e 29be
00000250: 8044 2bbd 9c08 e8bd 87e6 13bd c467 aabb
00000260: f002 9b3d 765d 4b3d ef24 20bd 82aa 11bd
00000270: e58d 88bd 7d4f b73d 2c8c 933b 8117 673d
00000280: 87a9 d83c d259 c4bc c626 b1bb 41bb c33d
00000290: 2a6d 1b3e 618a c63b 3321 07bd 8e02 1dbb
000002a0: a3dc 923d 204e 8dbd bace b33d 58dd 6bbc
000002b0: 8d93 0d3e 8c31 ec3b 69f5 71bd a1ba 08bd
000002c0: f3a1 d33c 36f0 483d 34c8 9e3d b467 ad3d
000002d0: 03a3 b93d fa7b d2bd 35ab 10be 96b6 01bd
000002e0: a21a d83b 483e 68bd f182 fcbd 16c0 233d
000002f0: 3104 3ebd 36c1 ed3d d576 90bd a839 b43c
00000300: 5a98 973d baab ba3d a5e2 9a3a d195 e9bd
00000310: 0741 d83d 5a48 953c c6e0 a0bd 839a 383d
00000320: ad94 103e 099b c5bc 15b4 a7bd d047 06be
00000330: 638a b1bd d593 96bd 8946 2abd f43c c43c
00000340: 8c34 823d 66c8 0ebd a09c 223d eb5a 88bd
00000350: 8e3f 6fbd 0aa1 c83c 7fe0 cb3c 6d36 7f3d
00000360: 9fd8 acbd 808f 423c 5f9b 7b3c 7534 49bd
00000370: e5e3 933d c880 653d 39a6 df3c 12e1 80bd
00000380: 7696 cebc dc48 07bd 957d 2fbd da0a c2bd
00000390: 216a d0bd 299e fd3c 8a4f 153e 4e77 113e
000003a0: 4b6b 313d e787 9c3d 2382 34bd 99fd 1f3d
000003b0: 88be fcbc d52f 683d 0fc8 2c3c 5edd 02be
000003c0: fef7 67bd 9ae0 95bd 65d6 c43d 2e11 aa3d
000003d0: 74a5 103d 2386 d3bc 4ebf 7a3c 4644 ba3d
000003e0: 2be0 a8bd 7330 c5bd adbc 8d3c 8f96 8bbd
000003f0: 0cac a63d 3f0e 933c be21 43bd c11e 95bd
-0.14144804 0.11907401 0.079893455 -0.019647308 -0.043629073 -0.028164174 0.018916588 0.031887054
0.10957736 0.038509976 0.008753942 -0.09622504 0.031135093 0.038578846 -0.023737999 0.06962136
0.0009715318 0.012139993 0.007057096 -0.130625 0.104301155 0.08069787 -0.023055298 0.055605512
0.13391975 0.033742215 -0.06319865 -0.07268746 0.020970922 0.014279151 -0.03758877 -0.033701763
0.100785606 -0.050648153 0.023806678 -0.0009167147 0.07100605 -0.009812143 0.13108188 0.014660152
-0.03653774 -0.14723636 -0.08567585 -0.013816816 0.116418414 0.114925414 -0.084381014 -0.08428024
-0.09647795 0.035322066 -0.036287263 0.09339049 -0.10325949 -0.07984351 -0.10416303 -0.063335955
-0.043790422 -0.033982057 -0.10473802 -0.006046855 0.054804016 0.03284072 -0.036555585 -0.14572634
0.025770998 -0.042262957 0.07913341 -0.08312888 0.01681136 0.069883615 -0.060869347 0.034020655
0.049104866 -0.10102581 -0.07456137 0.024956869 -0.062813744 0.10993309 -0.11042112 0.05136797
-0.0026898722 0.02095951 0.04922316 -0.008341498 0.13279885 0.091261946 -0.106300935 0.011512925
0.043541294 0.115455255 -0.038958166 -0.0025458396 0.1340518 0.080253854 -0.008298874 -0.011953732
0.07218001 0.10356995 0.024540246 -0.10883126 0.028449053 -0.012974152 -0.067409456 0.08007446
0.12383014 0.056149792 0.051066563 -0.037177764 -0.032997057 0.006258183 0.029403495 -0.019614264
0.046729907 -0.07164041 0.16592836 -0.046840113 -0.071435735 -0.03338863 -0.07131494 -0.021324862
0.07552085 0.056214288 -0.055628717 -0.06442223 -0.12499754 -0.026933193 0.030750915 -0.1277541
-0.002154212 -0.12050545 0.033361617 -0.035858195 0.081326626 0.098458536 -0.0055928617 0.16873032
-0.08602584 -0.08836305 -0.054031506 0.07670644 -0.030433552 -0.07202643 -0.04652014 0.033706233
-0.14227588 0.14610466 0.04727395 -0.16539858 -0.041813374 -0.11329767 -0.03610852 -0.005200358
0.0756892 0.04964968 -0.039097723 -0.035563 -0.06667689 0.08950708 0.004502794 0.0564189
0.026448024 -0.02396861 -0.0054062335 0.095572 0.15178362 0.0060589765 -0.032990646 -0.0023957822
0.07170989 -0.06899667 0.08779664 -0.014396034 0.13825817 0.007208055 -0.059071932 -0.03338111
0.02583406 0.049057208 0.077530295 0.084670454 0.09064295 -0.10277553 -0.1412781 -0.03166827
0.0065949718 -0.05670002 -0.123296626 0.03997811 -0.046390716 0.11609118 -0.070539154 0.022000149
0.07402106 0.091147855 0.0011816813 -0.11405528 0.10559278 0.018222976 -0.07855372 0.04506923
0.14119215 -0.024121778 -0.08188645 -0.13113332 -0.08668973 -0.073524155 -0.041571174 0.023954846
0.06357679 -0.034859084 0.03970015 -0.06657966 -0.05841022 0.024490852 0.024887322 0.062307764
-0.08439755 0.011875033 0.015356868 -0.049122293 0.07221202 0.05603102 0.02730094 -0.06292929
-0.02521823 -0.03302847 -0.042844374 -0.09474726 -0.101764925 0.030959206 0.14581123 0.14205667
0.043315213 0.07643109 -0.04406942 0.03906021 -0.030852571 0.05668624 0.010545745 -0.12779757
-0.05663299 -0.0731823 0.09611205 0.08304058 0.03531404 -0.025820797 0.0153044 0.090950534
-0.08245882 -0.096283816 0.017301882 -0.06815826 0.08138284 0.017951129 -0.0476396 -0.072812565

lstm.bias_ih_l0 f4 [256]
00000000: 042f 843c ca92 02bc b066 13bd 2f6f bb3d
00000010: 4316 ad3d d24c 9fbd bbeb 4ebc e57d 263e
00000020: eedb 883d c94b e9bc f0c0 b33b 5d80 20bc
00000030: 5fa3 bb3d 16c1 a9bd ba50 a03d 7d90 2abc
00000040: 999d c33d 105e 163e 0bb9 14bd 6934 41bc
00000050: 36f0 0dbd dc59 af3d b315 7e3d 8194 ff3d
00000060: 0c29 85bd 3adf 66bd dbba 763c 1f57 f6bd
00000070: 6b49 39bd 97cb c33d 3259 f13d 0f98 bd3b
00000080: dc95 aabc d040 8c3d ff98 823d 9efb 963d
00000090: d678 3cbd 07c9 38bc f070 ff3c 26ef cbbd
000000a0: c035 cb3c f395 1f3d a410 e43d b183 dbbd
000000b0: eb6e 2fbc e5eb 2ebd 5fc8 81bd 4cf8 853d
000000c0: 0d39 cc3d d835 063e 5267 b0bd 03a1 a9bd
000000d0: 1803 503d ecbe 993d 43e4 bd3d 386e 92bc
000000e0: b0a9 c3bd a53a 083e 5c64 603d 05c9 b2bd
000000f0: 2bc7 84bd 890f d33d afbc 4b3e d7e7 d3bb
00000100: 54fe 8bbd 749e bdbc 9dd9 88bc e6c7 1b3b
00000110: 4f61 333d 5a53 133e 5390 32bd ff86 2b3e
00000120: 2043 92bc 8eb9 16bd edc7 18bc d133 bdbb
00000130: 28f7 1c3e f5ad 123e 1742 8b3d 1af5 a4bd
00000140: 3670 40bd 290a a83d d3f1 a5bd 3042 dd3d
00000150: 10a2 bc3c b7de 083e da4e a9bd 798b 023d
00000160: b021 47bc 5422 913d 4101 273d 9260 b13d
00000170: 837a 8ebd 17d6 7b3d dd9c 083e e2d5 923d
00000180: bfe9 adbc e69d 1a3e 57ec 043d eb34 2dbd
00000190: b38c 8e3d c9e9 463d 9849 893d 678c d3bd
000001a0: 1886 03bd aea7 b5bc fc04 8b3c 5754 023e
000001b0: 277f d1bd 597b f4bc 5728 dabc d282 e03c
000001c0: 2bde 76bd 404a ba3c 7842 b8bc 88b8 8b3d
000001d0: fa3d 653d 1041 8c3d ba33 013e 67f1 473d
000001e0: 7c8e c93d 8c3a 093e 6ec9 8abb 51ed cf3d
000001f0: ed84 1c3d ab3b ca3d 89b8 90bd 029b ec3d
00000200: bc09 a3bd 5fc1 ef3c bbbb ad3c 0b0f 92bd
00000210: f624 963d 4b5b a4bc 7c0b 05bd 2271 ca3d
00000220: 00fe a43d b028 a1bd 716e 013d e38e 823d
00000230: fbb9 4c3d 5a84 08bd 9237 60bd 2a14 4dbd
00000240: 6bad e0bd 1b88 d63d f700 9b3d f912 2f3d
00000250: c389 9c3d 633a debc 099b af3d 40fc c83d
00000260: 7aec afbc 2559 35bc 8395 e0bc 4eff 8a3d
00000270: 53ba 00be 4c99 7b3d 2458 ebbc be21 a73d
00000280: 7eba 2b3c bb54 973d 82df a33d e306 be3d
00000290: b06f b3bd 14a3 17bd 083f 9a3c 1554 da3d
000002a0: de6d 2e3d 0e95 88bd 0146 e43b ef55 7f3d
000002b0: 4b96 63bc 5c76 fabb b2b6 43bb 6a08 f43c
000002c0: dccd 84bd 289a 6f3d 4cd7 8bbd 981d 7ebd
000002d0: 7a7e b2bd 9c02 f93d 14cc cfbd 9d44 a1bd
000002e0: 31fc f23d 0baf fe3d 70bd 8abc 75b2 663c
000002f0: 09b8 7bbd 528b 6dbd 2cab 8a3c c5aa 0cbe
00000300: aac3 0e3e 1e8d ae3d 5521 cd3c fab3 5a3d
00000310: b633 003e 73d1 d03c c079 bcbd 7384 f83d
00000320: 316b 543d 6eaa 4ebc 4d70 2fbd a8ac 053e
00000330: 2970 683d 3933 263e cafd 21b9 7d56 4f3d
00000340: 62d2 c2bd c75a 873d d884 533e 441e d53d
00000350: 3e9e 2e3e 6cf3 94bd c90c 053e 2b21 68bd
00000360: 7593 55bd 2357 9ebd 9d9b 3f3c 132e c43b
00000370: d669 083e decb 0bba 2d36 b73c b81e 9b3d
00000380: 7eaa bd3c 04e6 803d ce61 1cbd 6cda d23d
00000390: d4bb bf3d bddd 12bb 8bb0 ea3d 7752 2a3d
000003a0: 9060 5c3e 0d0e 063d 112f d23d 0ca9 0f3e
000003b0: 7ea4 b53c 5adc 50bd e5a1 8cba 45b0 7b3d
000003c0: 9eeb 8b3c 8222 91bd 568f 0fbd 144c 9c3c
000003d0: 4d3b 94bd cfe1 e8bb 257c 973c c19f a1bd
000003e0: e97a 183c 7544 b7bd 532c 5ebd 3b0c ac3d
000003f0: cf34 f03b 510c 933e 3b8f 113e 5a8a 3cbd
0.0161357 -0.007969568 -0.035986602 0.09152066 0.08451512 -0.07778324 -0.012629445 0.16258962
0.06682573 -0.02847852 0.0054856464 -0.009796229 0.0916202 -0.08288781 0.07827897 -0.010410425
0.09551544 0.1468432 -0.036309283 -0.011792281 -0.03465291 0.08562061 0.062032413 0.12479497
-0.0650197 -0.05636523 0.015059198 -0.12028336 -0.045236032 0.09560316 0.11784591 0.005785949
-0.020823412 0.068482995 0.06376838 0.07372211 -0.046013676 -0.011278397 0.031181782 -0.09957723
0.024805903 0.038961362 0.111359864 -0.107184775 -0.010707597 -0.042705435 -0.06337046 0.065414995
0.09971819 0.13106477 -0.08613457 -0.08282664 0.0507842 0.075071186 0.09272053 -0.017874822
-0.0955385 0.13303621 0.05478321 -0.08729748 -0.06483301 0.103056975 0.19896196 -0.0064668464
-0.068356186 -0.023146845 -0.016705329 0.0023770272 0.043793973 0.14387265 -0.04359467 0.16750716
-0.017854273 -0.036798052 -0.00932501 -0.0057739993 0.15328658 0.14324172 0.06799715 -0.08054562
-0.046982013 0.08205063 -0.08102765 0.1080364 0.023026496 0.13366209 -0.08266993 0.031871293
-0.012154028 0.07086626 0.04077268 0.086609975 -0.06956961 0.06148347 0.13341089 0.07169701
-0.021229623 0.15099296 0.032451954 -0.042286795 0.0696043 0.0485628 0.0670349 -0.10329514
-0.032110304 -0.022174682 0.01697015 0.12727486 -0.102293305 -0.029843973 -0.026630564 0.02740613
-0.06027047 0.022740483 -0.022492632 0.06822306 0.05596731 0.06848347 0.12617388 0.048814204
0.0984163 0.1340124 -0.004235438 0.101526864 0.038212705 0.09874662 -0.07066447 0.11553003
-0.07960841 0.029267011 0.02120768 -0.071317755 0.073312685 -0.020063063 -0.032481655 0.098848596
0.08056259 -0.07869089 0.031599466 0.0637491 0.049982052 -0.033329345 -0.054740496 -0.050068058
-0.10970577 0.10475179 0.075685434 0.042742703 0.076434635 -0.02712745 0.085744925 0.09813738
-0.021475065 -0.011068617 -0.027415043 0.06786977 -0.12571077 0.061425492 -0.028728552 0.08160733
0.010481475 0.07389208 0.08001615 0.09278657 -0.08761537 -0.037020758 0.018828884 0.106605686
0.042585246 -0.06669055 0.006966353 0.062337812 -0.013890813 -0.007643504 -0.0029863534 0.029789168
-0.06484577 0.058496624 -0.06828174 -0.06203994 -0.0871553 0.12158701 -0.10146347 -0.07874415
0.11864508 0.124357305 -0.016936034 0.014080633 -0.061454806 -0.057994194 0.016927324 -0.13737018
0.13941827 0.0852301 0.025040308 0.053394295 0.12519726 0.025490498 -0.092029095 0.12134638
0.05186004 -0.012613876 -0.042831708 0.13054144 0.05674759 0.16230477 -0.000154487 0.05061959
-0.095127836 0.06609111 0.20656145 0.10406163 0.17052552 -0.072729915 0.12993158 -0.056672256
-0.05214258 -0.07731464 0.011694816 0.005986938 0.13321623 -0.0005332808 0.0223647 0.075742185
0.023152586 0.06293872 -0.03817921 0.10295567 0.09361997 -0.0022409998 0.11459454 0.04158255
0.2152121 0.032728244 0.102628835 0.1402933 0.022173163 -0.050991394 -0.0010729401 0.0614474
0.017080124 -0.0708666 -0.035048805 0.019079246 -0.07237873 -0.0071069966 0.018491814 -0.07891799
0.009306648 -0.08948604 -0.05424149 0.0840077 0.007330514 0.28720334 0.14214794 -0.04603038

lstm.bias_hh_l0 f4 [256]
00000000: 90f5 9d3c 9f33 c53d 0d19 a6bd 5d8b fe3d
00000010: fba8 bcbd 0f04 023e ceb2 9fbc f3e1 e2bc
00000020: ad56 c2bd e2fc 063e 2556 8dbd 6b13 07bc
00000030: 9ceb a93b 5464 323c 0792 483d 2fef d73d
00000040: 1bc8 dd3d 7022 5fbd 25cf b63d 6bff 923d
00000050: 2258 6fbd 5a6b c0bb 3737 053e cc71 1b3d
00000060: 5916 0e3e a7fa d03d f04c babd c933 64bd
00000070: eb11 3bbd 9f2f a3bd f846 6d3d 15d8 48bd
00000080: 1648 cf3d 1669 c1bc 1f79 e83d afcc 2abd
00000090: 6847 14bd b5f9 dc3d 1f98 443d 4429 c2bd
000000a0: 7d10 093e a1be fbbb 4ee4 62bd c3c0 0b3e
000000b0: a89a 4e3d d201 2bbc 55a9 8abd 3c8a d6bc
000000c0: f15b 9bb9 c87e 83bd 86d5 bebd 5b78 95bd
000000d0: b519 113e e233 283d d326 f63b 48c7 133d
000000e0: e41a 753b 1cd5 0bbd aabf 87bd 5d7f 44bd
000000f0: 4663 5fbb 3355 c63d 8627 9d3b eb6d 60bc
00000100: c828 bf3c b6ab ddbc dca6 6a3d 7630 d0bb
00000110: 7670 0b3e cb55 86bc 9b05 8e3c 4493 e33d
00000120: ff82 b73d 91a1 8ebd 63be 213d 5812 df3d
00000130: 38ee ce3d bf43 253e 3d8a 85bc 9b8c 9fbb
00000140: 5e7c 993b 454a 1abd 5b14 2f3d 0a8e c6bb
00000150: 0ae6 92bd 8b80 ba3d 6c8e b03d f758 263d
00000160: f0fb ec3c 818c e6bc a2e8 113e 188d ad3d
00000170: fb92 df3d 3bae d63c e0cc 2bbd b02e e93d
00000180: c04e a4bc 89d8 97bd 824b ad3d 3584 1dbd
00000190: a2ba 193e 3f01 123e 2618 4fbc 961e 5fbd
000001a0: b86a f83d 7f19 303d 44c6 a3bc a473 e0bd
000001b0: 9a36 733d 008a ee3c e95c ec3d ae63 4bbd
000001c0: e15e f23d 4d33 bc3b c4fb cbbb 67c0 82bd
000001d0: 7840 3bbd 0d22 283d cadc b43c 4309 503d
000001e0: 1417 da3d 77f1 103e fd96 4a3d 773b bdbd
000001f0: 0c51 fdbc b058 1e3e c3ed 6cbd ea6b 96bd
00000200: be9a 61bd bcd6 78bd 5a76 cbbd 0db9 babd
00000210: eabb fc3d 37b7 2cbc bc65 8f3c 048f 05be
00000220: 8442 a83d 53bd 763d 5aa1 10bc 4afa 38bd
00000230: f195 163d 2af6 a83d abd4 64bc 9607 663d
00000240: 4378 ccbd ed95 053e 0b80 11bd a364 c23b
00000250: a924 973d 1239 06be d10a dfbb b2f0 f53a
00000260: c4b4 a53c 32ec 9dbd 1d2b 06be d58f 393d
00000270: 416c 093d ee47 093e f57d efbd 33ea 023d
00000280: 4de7 17bd d7ea d13d 78d7 863d 6c21 7fbd
00000290: 2cb5 cfbd 4066 dbbd d5ef 7b3d 0db9 873d
000002a0: 90ee 1fbd 86bb b3bd 5dd1 893d 548c b33c
000002b0: cbe3 0fbd 1b6a e8bd ccbe 95bd 0b4d d4bd
000002c0: 67eb 0dbe b6fe e5bc 71b0 463d e9a4 643d
000002d0: 36eb d6bd 49fa 15bd 3134 023e 40e4 2c3d
000002e0: 6848 193d 54e1 c9bd 30f5 db3c 1a38 d33c
000002f0: d0e9 a73c e2c2 7ebd beb3 873d 4fe7 6bbc
00000300: d650 ce3d b194 623d 5202 59bc 4a5a 1d3d
00000310: 5516 c43c 0e8f aa3d ea5f 813b fbff 1c3e
00000320: f4d3 a8bd 67fc 803c de8b ae3d aaca 973d
00000330: 6f5f 9f3d 81d7 fb3d 2bca 263e 25e6 a03d
00000340: 3d2c 25bd 0635 1ebd ab4c 033c 6cca c03d
00000350: 3aba 83bc 80b0 c0bc eb81 b33d b805 55bb
00000360: 32b0 87bd 6343 8a3d 78f6 d0bc 5f1f 2dbd
00000370: 9466 91bd 4bb5 9fbd 229b e83d 4626 203e
00000380: 1c6d 7c3d 3219 85bd 931f 953d e373 1a3e
00000390: 6488 1b3e 5a13 183e 14bf 7abc 6fe5 863c
000003a0: 6636 003e 6ad9 053e 38c8 523d 9778 133d
000003b0: 497b 63bd db3a 283e 664c fd3d be79 243d
000003c0: 631c 023e 809e 6cbd ec10 f23c 63d2 0b3d
000003d0: e2cf cc3c c888 083e 0962 733d 29f9 aebd
000003e0: f225 143e 132e cbbd 14fc 0d3e 99d0 113e
000003f0: cb95 8f3d e8db d13d 0fcf 513d 8758 8e3d
0.019282132 0.096289866 -0.08110247 0.12428925 -0.09211918 0.1269686 -0.01949444 -0.027695632
-0.09489188 0.13182405 -0.069011964 -0.008244376 0.0051855575 0.010888178 0.048967388 0.105436675
0.10829183 -0.0544762 0.089262284 0.07177623 -0.05843366 -0.0058721723 0.13009344 0.037950322
0.13875712 0.10204058 -0.09096706 -0.05571345 -0.045671385 -0.079680674 0.05792901 -0.049034197
0.10121171 -0.02360968 0.11351227 -0.041699108 -0.03620091 0.10789815 0.047996636 -0.09480527
0.13385196 -0.007682637 -0.05539351 0.13647752 0.05044046 -0.010437446 -0.06770579 -0.026188962
-0.00029632405 -0.06420666 -0.0931807 -0.072983466 0.14169963 0.041065104 0.0075119524 0.03607872
0.0037400061 -0.034138784 -0.06628354 -0.047973026 -0.0034086271 0.09684219 0.0047959713 -0.0136980815
0.023334876 -0.027059417 0.057288036 -0.0063534332 0.13617119 -0.016398331 0.017336657 0.11112073
0.089605324 -0.0696441 0.039488208 0.10892171 0.1010403 0.16139124 -0.016301269 -0.0048690564
0.004684015 -0.037668485 0.042744022 -0.006059413 -0.07172783 0.09106549 0.08620915 0.040612187
0.028928727 -0.02814317 0.14248899 0.08474177 0.10916706 0.026206126 -0.04194343 0.11385858
-0.020057082 -0.07414348 0.084616676 -0.03845616 0.15012601 0.14258288 -0.012640035 -0.05447253
0.1212973 0.042993065 -0.019992001 -0.10959557 0.059378244 0.029118538 0.11541159 -0.04965561
0.11834503 0.00574342 -0.006225081 -0.06384354 -0.04571578 0.0410481 0.022077937 0.050790083
0.10648933 0.14154612 0.0494604 -0.09239858 -0.030922435 0.15463519 -0.057843935 -0.07344802
-0.055079214 -0.06075166 -0.09934683 -0.09117327 0.12340529 -0.010541729 0.017504565 -0.13042837
0.08215812 0.060239147 -0.008827532 -0.04516057 0.03676409 0.08250077 -0.01396672 0.05615958
-0.099838756 0.13045473 -0.035522502 0.005932407 0.07380039 -0.13107708 -0.0068067093 0.0018763749
0.020227797 -0.07711066 -0.13102384 0.045303185 0.033550505 0.13406345 -0.11693946 0.03196163
-0.03708582 0.1024987 0.06584066 -0.062287733 -0.10141978 -0.10712862 0.06150802 0.066270925
-0.03904587 -0.08776002 0.06729386 0.0219175 -0.03512935 -0.11348363 -0.07311782 -0.10366257
-0.1385933 -0.028075557 0.04850811 0.055821333 -0.10494082 -0.036615644 0.12715222 0.042209864
0.037422568 -0.09857431 0.026850313 0.025783587 0.020497233 -0.062197573 0.0662608 -0.01439841
0.10074012 0.055317584 -0.013245182 0.038416184 0.02393643 0.08328067 0.0039482014 0.15332024
-0.08243552 0.015745355 0.08522771 0.07411702 0.077818744 0.122969635 0.16288058 0.078563966
-0.040325392 -0.038624786 0.008013885 0.09413609 -0.01608001 -0.023521662 0.08765014 -0.003250463
-0.066254035 0.06751134 -0.02550815 -0.042266246 -0.07099643 -0.07798251 0.11357714 0.156396
0.061627492 -0.06498946 0.07281413 0.1508327 0.15188748 0.14851132 -0.015304346 0.016466824
0.12520751 0.13071218 0.051460475 0.036003675 -0.055537496 0.16428702 0.123680875 0.040155165
0.12706141 -0.057768345 0.029549085 0.034136187 0.02500147 0.13333428 0.059419665 -0.08543617
0.144676 -0.09920897 0.13865691 0.1423973 0.070109926 0.10247022 0.051222857 0.06950479

fc.weight f4 [64, 64]
00000000: 4f49 babd cad5 263e 3636 08be ace8 2ebe
00000010: a9c2 273e 1139 f8bd 3176 e3bc 8fda 4dbd
00000020: 3e35 f63d 1a51 ffbd 7b8c 00bc 2597 d7bd
00000030: 92af cdbd a955 3b3e 11f8 253c 6f9f 10be
00000040: 7397 b43d adf7 91bc 82ef 9ebb 896c 863d
00000050: 8813 bc3d 54f4 113d 078d da3d decc b0bd
00000060: 2491 19be ac0e 73bc 3af1 8cbd c2de 4bbd
00000070: 9c07 d3bd abfa 313e 46a0 063d af31 193e
00000080: d3ec e7bd 77cb 6b3d d8c9 c93d 7e6a b5bd
00000090: 8cdb b0ba 5045 803d 9a49 1d3e 498c 02be
000000a0: a082 08be 9fbb f03d 433a 0dbe 7776 a6bc
000000b0: 2532 d33c a60f 413d 1a32 30be 8acb 2ebe
000000c0: a9b4 1fbe cace fdbd 2345 88bc 259e e43c
000000d0: fe8c 493d 11fb 603d 9a8f 393e bc8e bbbd
000000e0: fe4d 313e 39e5 1a3e bacb c93c 8e62 b9bd
000000f0: 6779 a1bc 616c 66bc 2365 ccbc c83b 32be
00000100: c5bf cfbc 619f 4e3e 3367 20bd 2b23 19be
00000110: 17f0 a03c fb55 4c3e 63d6 8abd 65f3 793e
00000120: 53aa d93d 581d 77be 5258 dbbd b64e 4dbe
00000130: da71 9fbd c871 c53c 72b0 1abe 2847 043d
00000140: be23 a33d ef08 dc3d 87ff 183e 2d10 debd
00000150: cdb9 d73c 7166 863c 79fb 38be 3971 4d3e
00000160: a647 29be 1a2b 263e 20fe b3bd e82a d03c
00000170: d80a ffbb e6b0 1fbe 8c22 4ebd 4ee1 cd3d
00000180: 8c3e 33bd 18ac 133c 02e4 e93d b694 52be
00000190: 1e71 db3d 2d99 893c ef75 4a3e 319c 1ebc
000001a0: 418c 13be 1fcf 5bbe 30cb 85be 9bed c13d
000001b0: 33b4 8c3e 1f85 073e e894 1fbe 2fb3 86be
000001c0: 20a2 53bd fb8a 4bbe fcdf 4b3d 3a7c 15be
000001d0: 789d ff3d 5e3f 2f3e 292a bd3d 58be f8bc
000001e0: c4dd c03d 5c71 043e 5612 53be 239c 8dbc
000001f0: c51d 73be dd07 993e df90 4abe 50a8 b5bd
00000200: bd31 0f3e 88c0 233d e643 103d 0c2f 2dbe
00000210: af3d 043e ac33 873d 4b04 d8bd 6c3c cabd
00000220: 4c2c 08bd b169 cfbc 340e 8e3c 3e47 d1bc
00000230: 636a b6bd bb7d fb3a ab19 04be abcc eabc
00000240: ec1c 0ebd 9cbb 20bd b685 373e 4317 d83c
00000250: c6a5 323d c099 8ebd 9187 9fbd 9dcc 8abd
00000260: f277 cebd af9b d03d 509a e8bd 9cd8 313d
00000270: c9be c7bd 3d76 c03d 1726 aa3d b169 ee3c
00000280: 3570 debd 5fee 8439 ea28 aabc 044c 963d
00000290: 9483 c3bd 49c6 0f3b 2e6d f43c 0e18 3bbb
000002a0: 613a d5bc 1f0e 183e 45fe de3c 0b6d b83d
000002b0: 60a4 1bbd 4568 b1bd cd2e 293d c5f9 9bbc
000002c0: 72e8 03be 66b4 e33d cee9 42bc 9f6f 643d
000002d0: 34fa 64bc e735 f83d 08fe b83c aa3a 443d
000002e0: 625d d63d e4cf cdbc e7c6 443c d005 98bd
000002f0: 1777 c63d 0f32 b3bd ccae 173e 7d70 38bd
00000300: e628 afbb 5688 a63e f8c4 63bd 1e3c 0bbe
00000310: f5de e8bc bd6a c2bd 9891 a7ba 07ec 13be
00000320: af2b ee3d 0e23 01be a652 cbbd da72 3bbe
00000330: 785d f1bd c820 303e 2642 a0bd f4b4 cabd
00000340: 9f29 e53d 24fa 5f3e ffee debc 84e4 f03d
00000350: a851 8a3d 38bc 75be 4b78 a33c a462 72bd
00000360: 5e45 eb3b de8f 30bd baaf bcba 84ac c3bc
00000370: fb65 38be e8ea 023d 2347 f4bc 1186 6d3e
00000380: dd48 7abe fd8a fdbd 0254 143e bbe9 35be
00000390: 2e5d 013d 9a29 e7bd 20d9 4d3e e12f 70bd
000003a0: 74ce 273d c4ce 9b3d 49d8 4fbe fc37 5bbd
000003b0: 64c0 9f3e c254 87bd f2ed 71be 7202 eabd
000003c0: 2418 97be dff7 12be 73d8 a2bd 8ce0 1bbe
000003d0: 5a71 593e eb0e cd3d 4662 783e 2d0b 6fbd
000003e0: 094d 543e fb67 ba3c 8e99 093d 272a 2a3d
000003f0: 80de 2abe bc22 c0be d398 9b3e 1510 77be
-0.09096014 0.16292492 -0.1330193 -0.17080945 0.1638285 -0.121202596 -0.027766319 -0.05025726
0.12021874 -0.12466641 -0.007845993 -0.105268754 -0.10043253 0.18294396 0.010129944 -0.14123319
0.08817949 -0.017818296 -0.004850329 0.0656367 0.09183413 0.0356334 0.1067143 -0.08632825
-0.14996773 -0.014835041 -0.06881948 -0.049772985 -0.10304186 0.17380778 0.032867692 0.14960359
-0.113244675 0.057567086 0.09852952 -0.088582024 -0.0013493164 0.0626322 0.15360108 -0.12748827
-0.1333108 0.11754536 -0.13791756 -0.02032016 0.025780747 0.047134064 -0.17206612 -0.17069831
-0.1559626 -0.123929575 -0.01663453 0.02790744 0.049206726 0.054926936 0.18121186 -0.09158084
0.17314908 0.15126504 0.024633277 -0.09052001 -0.01971121 -0.0140639255 -0.02495057 -0.17405617
-0.025359998 0.20177986 -0.03916092 -0.14954822 0.019645734 0.19954674 -0.06779172 0.24409254
0.1062819 -0.24132288 -0.10710205 -0.20049557 -0.07785387 0.024102107 -0.15106371 0.032294422
0.07965802 0.107438914 0.14941226 -0.10842929 0.026333714 0.01640627 -0.18064679 0.20062722
-0.16531238 0.1622738 -0.08788705 0.025411084 -0.007783275 -0.15594825 -0.050325915 0.10052739
-0.04376082 0.009013198 0.11420442 -0.20564541 0.10714935 0.016796673 0.1977155 -0.009680794
-0.14408971 -0.21465729 -0.26131582 0.09469148 0.2748123 0.13234375 -0.15584147 -0.2630858
-0.051668286 -0.19877236 0.049774155 -0.1459817 0.12481207 0.17114016 0.09236557 -0.0303642
0.094172984 0.12933868 -0.20612463 -0.017286366 -0.23741825 0.29888812 -0.19781826 -0.08869994
0.13983817 0.039978534 0.035221003 -0.16912478 0.12914155 0.066016525 -0.10547694 -0.09874806
-0.03324537 -0.025318952 0.017340757 -0.025546666 -0.089070104 0.0019187251 -0.12900417 -0.028662046
-0.03469555 -0.03924142 0.179221 0.02637828 0.043615125 -0.06962919 -0.07789529 -0.06777308
-0.100814715 0.10185944 -0.11357558 0.043419465 -0.09753186 0.09397552 0.08308046 0.029103132
-0.108612455 0.00025354602 -0.020771462 0.073387176 -0.09546581 0.0021938256 0.029837217 -0.0028548273
-0.026028814 0.14849137 0.027220855 0.09005173 -0.037998557 -0.08662466 0.0413044 -0.019039998
-0.1288164 0.11118393 -0.011896564 0.055770513 -0.013975669 0.12119656 0.022582069 0.04790751
0.1046703 -0.025123544 0.012010313 -0.07422984 0.09690683 -0.08749782 0.14812773 -0.045029152
-0.0053454516 0.3252589 -0.055607766 -0.13597152 -0.028426627 -0.09493015 -0.0012784479 -0.14445506
0.11629426 -0.12611029 -0.09927873 -0.18305531 -0.11785406 0.17200005 -0.07825117 -0.09897795
0.11189579 0.21872765 -0.027213572 0.11762336 0.06753856 -0.23997581 0.019954821 -0.059176102
0.0071799 -0.043105952 -0.0014395632 -0.023885973 -0.18007652 0.031962305 -0.029819077 0.23195674
-0.24441858 -0.123800255 0.14485171 -0.17764942 0.031583004 -0.11287232 0.20102358 -0.05863941
0.040968373 0.07607797 -0.2029735 -0.053520188 0.3120147 -0.06607963 -0.23625925 -0.11426248
-0.29510605 -0.14352368 -0.07951441 -0.15222377 0.21234646 0.10012611 0.24256238 -0.058360267
0.20732512 0.02275466 0.033593707 0.041544106 -0.1668644 -0.375265 0.30390033 -0.24127229

fc.bias f4 [64]
00000000: 92d6 ab3d d8c6 afbc a243 c93d 877c 323d
00000010: 14de 803d c948 713e d1c2 b13d 9f99 de3d
00000020: cf86 c43d fb79 073e bffc 883e d1ce 263e
00000030: 0848 103d 40d0 22bd 344c 423e 73bd 373e
00000040: 6f18 0d3e 76ef fb3c e34e e43d 01cf 523e
00000050: 1750 1c3e 5379 9bbd d51c 9dbc b3fa 933d
00000060: dc9b 7c3d 0ce3 173d 9630 5c3e 1ff3 ab3d
00000070: abcd b23e 0ea1 b9bd 1ad0 e339 afa4 84bc
00000080: be6d 183d 1477 223e e30c d23d 654e c93d
00000090: e5ef fc3d ca5d 0a3e f30d 9dbd 9189 a03d
000000a0: 1e76 f53d 05f9 ab3d 6d3c 093e 5c1a 363d
000000b0: ccab 5abc db8b ff3d 74e9 cb3d b293 1bbc
000000c0: 6278 053e 516b 7c3c a3b5 2c3e be60 fc3d
000000d0: acab a63d 1172 dd3c f167 c23d c416 0d3e
000000e0: 6231 123e cd15 1d3e d4e4 c63d 31e5 223e
000000f0: 6a51 46bd 5e64 f83d 42dd cb3d 673d c73d
0.083905354 -0.02145712 0.09827353 0.04357579 0.06292358 0.23562922 0.086797364 0.10869145
0.09596025 0.13230126 0.2675533 0.16289832 0.035224944 -0.039749384 0.18974382 0.17943363
0.13778852 0.030753832 0.11147859 0.20586778 0.15264927 -0.075915 -0.019178787 0.072255515
0.061672077 0.037081763 0.21502909 0.08395981 0.34922537 -0.09063922 0.00043451862 -0.016191809
0.037214033 0.15865737 0.10256364 0.09829406 0.12350444 0.1351234 -0.07668676 0.07838739
0.1198542 0.08397106 0.13401957 0.044458732 -0.013346624 0.12477847 0.09956637 -0.0094956625
0.13034204 0.015406446 0.16866164 0.123231396 0.081382126 0.02703193 0.094924815 0.13778216
0.1427665 0.15340348 0.09711614 0.15907742 -0.048417486 0.121285185 0.09954311 0.097285084
